…
[524298:MainThread](2025-12-17 20:07:51,084) INFO - qlib.ALSTM - [pytorch_alstm_ts.py:64] - ALSTM pytorch version...
[524298:MainThread](2025-12-17 20:07:51,318) INFO - qlib.ALSTM - [pytorch_alstm_ts.py:86] - ALSTM parameters setting:
d_feat : 80
hidden_size : 128
num_layers : 2
dropout : 0.1
n_epochs : 100
lr : 0.0005
metric : 
batch_size : 512
early_stop : 10
optimizer : adam
loss_type : mse
device : cuda:0
n_jobs : 10
use_GPU : True
seed : 0
usenews : True
fusion_type : crossattn
attn_layers : 1
d_news : 512
[524298:MainThread](2025-12-17 20:07:51,325) INFO - qlib.ALSTM - [pytorch_alstm_ts.py:143] - model:
ALSTMModel(
  (feature_fc): Linear(in_features=80, out_features=128, bias=True)
  (news_fc): Linear(in_features=512, out_features=128, bias=True)
  (act): Tanh()
  (rnn): GRU(128, 128, num_layers=2, batch_first=True, dropout=0.1)
  (fc_out): Linear(in_features=256, out_features=1, bias=True)
  (att_net): Sequential(
    (att_fc_in): Linear(in_features=128, out_features=64, bias=True)
    (att_dropout): Dropout(p=0.1, inplace=False)
    (att_act): Tanh()
    (att_fc_out): Linear(in_features=64, out_features=1, bias=False)
    (att_softmax): Softmax(dim=1)
  )
  (cross_attn_layers): ModuleList(
    (0): CrossAttentionTSNews(
      (query_proj): Linear(in_features=128, out_features=128, bias=True)
      (key_proj): Linear(in_features=512, out_features=128, bias=True)
      (value_proj): Linear(in_features=512, out_features=128, bias=True)
      (out_proj): Linear(in_features=128, out_features=128, bias=True)
      (attn_dropout): Dropout(p=0.2, inplace=False)
      (norm1): LayerNorm((128,), eps=1e-05, elementwise_affine=True)
      (ffn): Sequential(
        (0): Linear(in_features=128, out_features=512, bias=True)
        (1): GELU(approximate='none')
        (2): Dropout(p=0.2, inplace=False)
        (3): Linear(in_features=512, out_features=128, bias=True)
      )
      (ffn_dropout): Dropout(p=0.2, inplace=False)
      (norm2): LayerNorm((128,), eps=1e-05, elementwise_affine=True)
    )
  )
)
[524298:MainThread](2025-12-17 20:07:51,325) INFO - qlib.ALSTM - [pytorch_alstm_ts.py:144] - model size: 0.5525 MB
[524298:MainThread](2025-12-17 20:08:05,211) INFO - qlib.timer - [log.py:127] - Time cost: 12.429s | Loading data Done
[524298:MainThread](2025-12-17 20:08:06,719) INFO - qlib.timer - [log.py:127] - Time cost: 0.950s | RobustZScoreNorm Done
…
