…
[983406:MainThread](2025-12-19 16:10:45,968) INFO - qlib.ALSTM - [pytorch_alstm_ts.py:65] - ALSTM pytorch version...
[983406:MainThread](2025-12-19 16:10:46,149) INFO - qlib.ALSTM - [pytorch_alstm_ts.py:87] - ALSTM parameters setting:
d_feat : 80
hidden_size : 128
num_layers : 2
dropout : 0.1
n_epochs : 100
lr : 0.0005
metric : 
batch_size : 512
early_stop : 10
optimizer : adam
loss_type : mse
device : cuda:0
n_jobs : 10
use_GPU : True
seed : 0
usenews : True
fusion_type : decoder
layer_num : 1
d_news : 512
[983406:MainThread](2025-12-19 16:10:46,191) INFO - qlib.ALSTM - [pytorch_alstm_ts.py:144] - model:
ALSTMModel(
  (feature_fc): Linear(in_features=80, out_features=128, bias=True)
  (news_fc): Linear(in_features=512, out_features=128, bias=True)
  (act): Tanh()
  (rnn): GRU(128, 128, num_layers=2, batch_first=True, dropout=0.1)
  (fc_out): Linear(in_features=256, out_features=1, bias=True)
  (att_net): Sequential(
    (att_fc_in): Linear(in_features=128, out_features=64, bias=True)
    (att_dropout): Dropout(p=0.1, inplace=False)
    (att_act): Tanh()
    (att_fc_out): Linear(in_features=64, out_features=1, bias=False)
    (att_softmax): Softmax(dim=1)
  )
  (decoder_layers): CrossAttentionDecoder(
    (ts_pos): SinusoidalPositionalEncoding()
    (decoder): TransformerDecoder(
      (layers): ModuleList(
        (0): TransformerDecoderLayer(
          (self_attn): MultiheadAttention(
            (out_proj): NonDynamicallyQuantizableLinear(in_features=128, out_features=128, bias=True)
          )
          (multihead_attn): MultiheadAttention(
            (out_proj): NonDynamicallyQuantizableLinear(in_features=128, out_features=128, bias=True)
          )
          (linear1): Linear(in_features=128, out_features=512, bias=True)
          (dropout): Dropout(p=0.1, inplace=False)
          (linear2): Linear(in_features=512, out_features=128, bias=True)
          (norm1): LayerNorm((128,), eps=1e-05, elementwise_affine=True)
          (norm2): LayerNorm((128,), eps=1e-05, elementwise_affine=True)
          (norm3): LayerNorm((128,), eps=1e-05, elementwise_affine=True)
          (dropout1): Dropout(p=0.1, inplace=False)
          (dropout2): Dropout(p=0.1, inplace=False)
          (dropout3): Dropout(p=0.1, inplace=False)
        )
      )
    )
  )
)
[983406:MainThread](2025-12-19 16:10:46,192) INFO - qlib.ALSTM - [pytorch_alstm_ts.py:145] - model size: 0.5220 MB
[983406:MainThread](2025-12-19 16:10:58,182) INFO - qlib.timer - [log.py:127] - Time cost: 10.358s | Loading data Done
…
