…
[525859:MainThread](2025-12-17 20:08:13,764) INFO - qlib.GATs - [pytorch_gats_ts.py:83] - GATs pytorch version...
[525859:MainThread](2025-12-17 20:08:13,981) INFO - qlib.GATs - [pytorch_gats_ts.py:106] - GATs parameters setting:
d_feat : 80
hidden_size : 128
num_layers : 2
dropout : 0.1
n_epochs : 100
lr : 0.0005
metric : 
early_stop : 10
optimizer : adam
loss_type : mse
base_model : GRU
model_path : None
visible_GPU : 0
use_GPU : True
seed : 0
usenews : True
fusion_type : crossattn
attn_layers : 1
d_news : 512
[525859:MainThread](2025-12-17 20:08:13,997) INFO - qlib.GATs - [pytorch_gats_ts.py:164] - model:
GATModel(
  (rnn): GRU(80, 128, num_layers=2, batch_first=True, dropout=0.1)
  (transformation): Linear(in_features=128, out_features=128, bias=True)
  (fc): Linear(in_features=128, out_features=128, bias=True)
  (fc_out): Linear(in_features=128, out_features=1, bias=True)
  (leaky_relu): LeakyReLU(negative_slope=0.01)
  (softmax): Softmax(dim=1)
  (cross_attn_layers): ModuleList(
    (0): CrossAttentionTSNews(
      (query_proj): Linear(in_features=80, out_features=80, bias=True)
      (key_proj): Linear(in_features=512, out_features=80, bias=True)
      (value_proj): Linear(in_features=512, out_features=80, bias=True)
      (out_proj): Linear(in_features=80, out_features=80, bias=True)
      (attn_dropout): Dropout(p=0.2, inplace=False)
      (norm1): LayerNorm((80,), eps=1e-05, elementwise_affine=True)
      (ffn): Sequential(
        (0): Linear(in_features=80, out_features=320, bias=True)
        (1): GELU(approximate='none')
        (2): Dropout(p=0.2, inplace=False)
        (3): Linear(in_features=320, out_features=80, bias=True)
      )
      (ffn_dropout): Dropout(p=0.2, inplace=False)
      (norm2): LayerNorm((80,), eps=1e-05, elementwise_affine=True)
    )
  )
)
[525859:MainThread](2025-12-17 20:08:13,998) INFO - qlib.GATs - [pytorch_gats_ts.py:165] - model size: 0.3434 MB
[525859:MainThread](2025-12-17 20:08:29,459) INFO - qlib.timer - [log.py:127] - Time cost: 13.294s | Loading data Done
[525859:MainThread](2025-12-17 20:08:31,198) INFO - qlib.timer - [log.py:127] - Time cost: 1.092s | RobustZScoreNorm Done
…
