…
[452053:MainThread](2025-12-17 14:54:15,701) INFO - qlib.GRU - [pytorch_gru_ts.py:62] - GRU pytorch version...
[452053:MainThread](2025-12-17 14:54:16,146) INFO - qlib.GRU - [pytorch_gru_ts.py:84] - GRU parameters setting:
d_feat : 80
hidden_size : 128
num_layers : 2
dropout : 0.1
n_epochs : 100
lr : 0.0003
metric : 
batch_size : 512
early_stop : 20
optimizer : adam
loss_type : mse
device : cuda:0
n_jobs : 10
use_GPU : True
seed : 0
usenews : True
fusion_type : crossattn
attn_layers : 6
d_news : 512
[452053:MainThread](2025-12-17 14:54:16,167) INFO - qlib.GRU - [pytorch_gru_ts.py:141] - model:
GRUModel(
  (news_proj): Linear(in_features=512, out_features=80, bias=True)
  (cross_attn_layers): ModuleList(
    (0-5): 6 x CrossAttentionTSNews(
      (query_proj): Linear(in_features=80, out_features=80, bias=True)
      (key_proj): Linear(in_features=512, out_features=80, bias=True)
      (value_proj): Linear(in_features=512, out_features=80, bias=True)
      (out_proj): Linear(in_features=80, out_features=80, bias=True)
      (attn_dropout): Dropout(p=0.2, inplace=False)
      (norm1): LayerNorm((80,), eps=1e-05, elementwise_affine=True)
      (ffn): Sequential(
        (0): Linear(in_features=80, out_features=320, bias=True)
        (1): GELU(approximate='none')
        (2): Dropout(p=0.2, inplace=False)
        (3): Linear(in_features=320, out_features=80, bias=True)
      )
      (ffn_dropout): Dropout(p=0.2, inplace=False)
      (norm2): LayerNorm((80,), eps=1e-05, elementwise_affine=True)
    )
  )
  (rnn): GRU(80, 128, num_layers=2, batch_first=True, dropout=0.1)
  (fc_out): Linear(in_features=128, out_features=1, bias=True)
)
[452053:MainThread](2025-12-17 14:54:16,168) INFO - qlib.GRU - [pytorch_gru_ts.py:142] - model size: 1.0516 MB
[452053:MainThread](2025-12-17 14:54:31,855) INFO - qlib.timer - [log.py:127] - Time cost: 13.891s | Loading data Done
[452053:MainThread](2025-12-17 14:54:33,631) INFO - qlib.timer - [log.py:127] - Time cost: 1.087s | RobustZScoreNorm Done
[452053:MainThread](2025-12-17 14:54:33,852) INFO - qlib.timer - [log.py:127] - Time cost: 0.219s | Fillna Done
…
