…
[525515:MainThread](2025-12-17 20:08:08,662) INFO - qlib.GRU - [pytorch_gru_ts.py:62] - GRU pytorch version...
[525515:MainThread](2025-12-17 20:08:09,103) INFO - qlib.GRU - [pytorch_gru_ts.py:84] - GRU parameters setting:
d_feat : 80
hidden_size : 128
num_layers : 2
dropout : 0.1
n_epochs : 100
lr : 0.0005
metric : 
batch_size : 512
early_stop : 10
optimizer : adam
loss_type : mse
device : cuda:0
n_jobs : 10
use_GPU : True
seed : 0
usenews : True
fusion_type : crossattn
attn_layers : 1
d_news : 512
[525515:MainThread](2025-12-17 20:08:09,115) INFO - qlib.GRU - [pytorch_gru_ts.py:141] - model:
GRUModel(
  (news_proj): Linear(in_features=512, out_features=80, bias=True)
  (cross_attn_layers): ModuleList(
    (0): CrossAttentionTSNews(
      (query_proj): Linear(in_features=80, out_features=80, bias=True)
      (key_proj): Linear(in_features=512, out_features=80, bias=True)
      (value_proj): Linear(in_features=512, out_features=80, bias=True)
      (out_proj): Linear(in_features=80, out_features=80, bias=True)
      (attn_dropout): Dropout(p=0.2, inplace=False)
      (norm1): LayerNorm((80,), eps=1e-05, elementwise_affine=True)
      (ffn): Sequential(
        (0): Linear(in_features=80, out_features=320, bias=True)
        (1): GELU(approximate='none')
        (2): Dropout(p=0.2, inplace=False)
        (3): Linear(in_features=320, out_features=80, bias=True)
      )
      (ffn_dropout): Dropout(p=0.2, inplace=False)
      (norm2): LayerNorm((80,), eps=1e-05, elementwise_affine=True)
    )
  )
  (rnn): GRU(80, 128, num_layers=2, batch_first=True, dropout=0.1)
  (fc_out): Linear(in_features=128, out_features=1, bias=True)
)
[525515:MainThread](2025-12-17 20:08:09,115) INFO - qlib.GRU - [pytorch_gru_ts.py:142] - model size: 0.3508 MB
[525515:MainThread](2025-12-17 20:08:24,945) INFO - qlib.timer - [log.py:127] - Time cost: 14.080s | Loading data Done
[525515:MainThread](2025-12-17 20:08:26,773) INFO - qlib.timer - [log.py:127] - Time cost: 1.163s | RobustZScoreNorm Done
[525515:MainThread](2025-12-17 20:08:27,014) INFO - qlib.timer - [log.py:127] - Time cost: 0.240s | Fillna Done
…
