…
dropout : 0.1
n_epochs : 100
lr : 0.0005
metric : 
batch_size : 512
early_stop : 10
optimizer : adam
loss_type : mse
device : cuda:0
n_jobs : 10
use_GPU : True
seed : 0
usenews : True
fusion_type : decoder
layer_num : 6
d_news : 512
/z5s/morph/home/ljf/anaconda3/envs/qlib/lib/python3.10/site-packages/torch/nn/utils/weight_norm.py:144: FutureWarning: `torch.nn.utils.weight_norm` is deprecated in favor of `torch.nn.utils.parametrizations.weight_norm`.
  WeightNorm.apply(module, name, dim)
[1041857:MainThread](2025-12-19 16:53:40,436) INFO - qlib.TCN - [pytorch_tcn_ts.py:146] - model:
TCNModel(
  (news_proj): Linear(in_features=512, out_features=80, bias=True)
  (tcn): TemporalConvNet(
    (network): Sequential(
      (0): TemporalBlock(
        (conv1): Conv1d(80, 128, kernel_size=(5,), stride=(1,), padding=(4,))
        (chomp1): Chomp1d()
        (relu1): ReLU()
        (dropout1): Dropout(p=0.1, inplace=False)
        (conv2): Conv1d(128, 128, kernel_size=(5,), stride=(1,), padding=(4,))
        (chomp2): Chomp1d()
        (relu2): ReLU()
        (dropout2): Dropout(p=0.1, inplace=False)
        (net): Sequential(
          (0): Conv1d(80, 128, kernel_size=(5,), stride=(1,), padding=(4,))
          (1): Chomp1d()
          (2): ReLU()
          (3): Dropout(p=0.1, inplace=False)
          (4): Conv1d(128, 128, kernel_size=(5,), stride=(1,), padding=(4,))
          (5): Chomp1d()
          (6): ReLU()
          (7): Dropout(p=0.1, inplace=False)
        )
        (downsample): Conv1d(80, 128, kernel_size=(1,), stride=(1,))
        (relu): ReLU()
      )
      (1): TemporalBlock(
        (conv1): Conv1d(128, 128, kernel_size=(5,), stride=(1,), padding=(8,), dilation=(2,))
        (chomp1): Chomp1d()
        (relu1): ReLU()
        (dropout1): Dropout(p=0.1, inplace=False)
        (conv2): Conv1d(128, 128, kernel_size=(5,), stride=(1,), padding=(8,), dilation=(2,))
        (chomp2): Chomp1d()
        (relu2): ReLU()
        (dropout2): Dropout(p=0.1, inplace=False)
        (net): Sequential(
          (0): Conv1d(128, 128, kernel_size=(5,), stride=(1,), padding=(8,), dilation=(2,))
          (1): Chomp1d()
          (2): ReLU()
          (3): Dropout(p=0.1, inplace=False)
          (4): Conv1d(128, 128, kernel_size=(5,), stride=(1,), padding=(8,), dilation=(2,))
          (5): Chomp1d()
          (6): ReLU()
          (7): Dropout(p=0.1, inplace=False)
        )
        (relu): ReLU()
      )
    )
  )
  (linear): Linear(in_features=128, out_features=1, bias=True)
  (decoder_layers): CrossAttentionDecoder(
    (ts_pos): SinusoidalPositionalEncoding()
    (decoder): TransformerDecoder(
      (layers): ModuleList(
        (0-5): 6 x TransformerDecoderLayer(
          (self_attn): MultiheadAttention(
            (out_proj): NonDynamicallyQuantizableLinear(in_features=80, out_features=80, bias=True)
          )
          (multihead_attn): MultiheadAttention(
            (out_proj): NonDynamicallyQuantizableLinear(in_features=80, out_features=80, bias=True)
          )
          (linear1): Linear(in_features=80, out_features=320, bias=True)
          (dropout): Dropout(p=0.1, inplace=False)
          (linear2): Linear(in_features=320, out_features=80, bias=True)
          (norm1): LayerNorm((80,), eps=1e-05, elementwise_affine=True)
          (norm2): LayerNorm((80,), eps=1e-05, elementwise_affine=True)
          (norm3): LayerNorm((80,), eps=1e-05, elementwise_affine=True)
          (dropout1): Dropout(p=0.1, inplace=False)
          (dropout2): Dropout(p=0.1, inplace=False)
          (dropout3): Dropout(p=0.1, inplace=False)
        )
      )
    )
  )
)
[1041857:MainThread](2025-12-19 16:53:40,437) INFO - qlib.TCN - [pytorch_tcn_ts.py:147] - model size: 0.9280 MB
[1041857:MainThread](2025-12-19 16:53:53,945) INFO - qlib.timer - [log.py:127] - Time cost: 11.510s | Loading data Done
…
