…
optimizer : adam
loss_type : mse
device : cuda:0
n_jobs : 10
use_GPU : True
seed : 0
usenews : True
fusion_type : crossattn
attn_layers : 6
d_news : 512
/z5s/morph/home/ljf/anaconda3/envs/qlib/lib/python3.10/site-packages/torch/nn/utils/weight_norm.py:144: FutureWarning: `torch.nn.utils.weight_norm` is deprecated in favor of `torch.nn.utils.parametrizations.weight_norm`.
  WeightNorm.apply(module, name, dim)
[451526:MainThread](2025-12-17 14:54:09,671) INFO - qlib.TCN - [pytorch_tcn_ts.py:145] - model:
TCNModel(
  (tcn): TemporalConvNet(
    (network): Sequential(
      (0): TemporalBlock(
        (conv1): Conv1d(80, 128, kernel_size=(5,), stride=(1,), padding=(4,))
        (chomp1): Chomp1d()
        (relu1): ReLU()
        (dropout1): Dropout(p=0.1, inplace=False)
        (conv2): Conv1d(128, 128, kernel_size=(5,), stride=(1,), padding=(4,))
        (chomp2): Chomp1d()
        (relu2): ReLU()
        (dropout2): Dropout(p=0.1, inplace=False)
        (net): Sequential(
          (0): Conv1d(80, 128, kernel_size=(5,), stride=(1,), padding=(4,))
          (1): Chomp1d()
          (2): ReLU()
          (3): Dropout(p=0.1, inplace=False)
          (4): Conv1d(128, 128, kernel_size=(5,), stride=(1,), padding=(4,))
          (5): Chomp1d()
          (6): ReLU()
          (7): Dropout(p=0.1, inplace=False)
        )
        (downsample): Conv1d(80, 128, kernel_size=(1,), stride=(1,))
        (relu): ReLU()
      )
      (1): TemporalBlock(
        (conv1): Conv1d(128, 128, kernel_size=(5,), stride=(1,), padding=(8,), dilation=(2,))
        (chomp1): Chomp1d()
        (relu1): ReLU()
        (dropout1): Dropout(p=0.1, inplace=False)
        (conv2): Conv1d(128, 128, kernel_size=(5,), stride=(1,), padding=(8,), dilation=(2,))
        (chomp2): Chomp1d()
        (relu2): ReLU()
        (dropout2): Dropout(p=0.1, inplace=False)
        (net): Sequential(
          (0): Conv1d(128, 128, kernel_size=(5,), stride=(1,), padding=(8,), dilation=(2,))
          (1): Chomp1d()
          (2): ReLU()
          (3): Dropout(p=0.1, inplace=False)
          (4): Conv1d(128, 128, kernel_size=(5,), stride=(1,), padding=(8,), dilation=(2,))
          (5): Chomp1d()
          (6): ReLU()
          (7): Dropout(p=0.1, inplace=False)
        )
        (relu): ReLU()
      )
    )
  )
  (linear): Linear(in_features=128, out_features=1, bias=True)
  (cross_attn_layers): ModuleList(
    (0-5): 6 x CrossAttentionTSNews(
      (query_proj): Linear(in_features=80, out_features=80, bias=True)
      (key_proj): Linear(in_features=512, out_features=80, bias=True)
      (value_proj): Linear(in_features=512, out_features=80, bias=True)
      (out_proj): Linear(in_features=80, out_features=80, bias=True)
      (attn_dropout): Dropout(p=0.2, inplace=False)
      (norm1): LayerNorm((80,), eps=1e-05, elementwise_affine=True)
      (ffn): Sequential(
        (0): Linear(in_features=80, out_features=320, bias=True)
        (1): GELU(approximate='none')
        (2): Dropout(p=0.2, inplace=False)
        (3): Linear(in_features=320, out_features=80, bias=True)
      )
      (ffn_dropout): Dropout(p=0.2, inplace=False)
      (norm2): LayerNorm((80,), eps=1e-05, elementwise_affine=True)
    )
  )
)
[451526:MainThread](2025-12-17 14:54:09,673) INFO - qlib.TCN - [pytorch_tcn_ts.py:146] - model size: 1.1351 MB
[451526:MainThread](2025-12-17 14:54:24,742) INFO - qlib.timer - [log.py:127] - Time cost: 13.212s | Loading data Done
[451526:MainThread](2025-12-17 14:54:26,722) INFO - qlib.timer - [log.py:127] - Time cost: 1.118s | RobustZScoreNorm Done
…
